…
0.001171761244035569}\n{\"epoch\": 2, \"train_loss\": 0.0053188443402792, \"dev_eer\": 0.0003980622637396586}\n{\"epoch\": 3, \"train_loss\": 0.0037337394185345467, \"dev_eer\": 0.00119418679121892}\n{\"epoch\": 4, \"train_loss\": 0.003136811552710993, \"dev_eer\": 0.0003980622637396586}\n{\"epoch\": 5, \"train_loss\": 0.003708932284827954, \"dev_eer\": 0.0012166123384022716}\n\n\n=== MODEL PARAMS SUMMARY ===\nSpoofDetector(\n  (encoder): Wav2Vec2Model(\n    (feature_extractor): Wav2Vec2FeatureEncoder(\n      (conv_layers): ModuleList(\n        (0): Wav2Vec2GroupNormConvLayer(\n          (conv): Conv1d(1, 512, kernel_size=(10,), stride=(5,), bias=False)\n          (activation): GELUActivation()\n          (layer_norm): GroupNorm(512, 512, eps=1e-05, affine=True)\n        )\n        (1-4): 4 x Wav2Vec2NoLayerNormConvLayer(\n          (conv): Conv1d(512, 512, kernel_size=(3,), stride=(2,), bias=False)\n          (activation): GELUActivation()\n        )\n        (5-6): 2 x Wav2Vec2NoLayerNormConvLayer(\n          (conv): Conv1d(512, 512, kernel_size=(2,), stride=(2,), bias=False)\n          (activation): GELUActivation()\n        )\n      )\n    )\n    (feature_projection): Wav2Vec2FeatureProjection(\n      (layer_norm): LayerNorm((512,), eps=1e-05, elementwise_affine=True)\n      (projection): Linear(in_features=512, out_features=768, bias=True)\n      (dropout): Dropout(p=0.1, inplace=False)\n    )\n    (encoder): Wav2Vec2Encoder(\n      (pos_conv_embed): Wav2Vec2PositionalConvEmbedding(\n        (conv): ParametrizedConv1d(\n          768, 768, kernel_size=(128,), stride=(1,), padding=(64,), groups=16\n          (parametrizations): ModuleDict(\n            (weight): ParametrizationList(\n              (0): _WeightNorm()\n            )\n          )\n        )\n        (padding): Wav2Vec2SamePadLayer()\n        (activation): GELUActivation()\n      )\n      (layer_norm): LayerNorm((768,), eps=1e-05, elementwise_affine=True)\n      (dropout): Dropout(p=0.1, inplace=False)\n      (layers): ModuleList(\n        (0-11): 12 x Wav2Vec2EncoderLayer(\n          (attention): Wav2Vec2Attention(\n            (k_proj): Linear(in_features=768, out_features=768, bias=True)\n            (v_proj): Linear(in_features=768, out_features=768, bias=True)\n            (q_proj): Linear(in_features=768, out_features=768, bias=True)\n            (out_proj): Linear(in_features=768, out_features=768, bias=True)\n          )\n          (dropout): Dropout(p=0.1, inplace=False)\n          (layer_norm): LayerNorm((768,), eps=1e-05, elementwise_affine=True)\n          (feed_forward): Wav2Vec2FeedForward(\n            (intermediate_dropout): Dropout(p=0.0, inplace=False)\n            (intermediate_dense): Linear(in_features=768, out_features=3072, bias=True)\n            (intermediate_act_fn): GELUActivation()\n            (output_dense): Linear(in_features=3072, out_features=768, bias=True)\n            (output_dropout): Dropout(p=0.1, inplace=False)\n          )\n          (final_layer_norm): LayerNorm((768,), eps=1e-05, elementwise_affine=True)\n        )\n      )\n    )\n  )\n  (classifier): Linear(in_features=768, out_features=1, bias=True)\n)\nEncoder type: Wav2Vec2Model\nPretrained name: facebook/wav2vec2-base\nTrainable params: 94372481\n","stderr":"\rLoading weights:   0%|          | 0/211 [00:00<?, ?it/s]\rLoading weights: 100%|██████████| 211/211 [00:00<00:00, 31970.17it/s]\n\u001b[1mWav2Vec2Model LOAD REPORT\u001b[0m from: facebook/wav2vec2-base\nKey                          | Status
…
